…
                                  filename category
9227               ocean-tramps_EN-azr.jpg       EN
7442  lin-huang-tien-fei-hsieng_ZN-acd.jpg       ZN
7849            ling-chu-ko-pai_ZN-apv.jpg       ZN
7659            ling-chu-ko-pai_ZN-afs.jpg       ZN
3293               chinese-laws_ZN-gmu.jpg       ZN
categories:
 category
ZN    5000
EN    5000
Name: count, dtype: int64
Model: "sequential"
_________________________________________________________________
 Layer (type)                Output Shape              Param #   
=================================================================
 conv2d (Conv2D)             (None, 254, 254, 64)      640       
                                                                 
 batch_normalization (Batch  (None, 254, 254, 64)      256       
 Normalization)                                                  
                                                                 
 max_pooling2d (MaxPooling2  (None, 127, 127, 64)      0         
 D)                                                              
                                                                 
 dropout (Dropout)           (None, 127, 127, 64)      0         
                                                                 
 flatten (Flatten)           (None, 1032256)           0         
                                                                 
 dense (Dense)               (None, 128)               132128896 
                                                                 
 batch_normalization_1 (Bat  (None, 128)               512       
 chNormalization)                                                
                                                                 
 dropout_1 (Dropout)         (None, 128)               0         
                                                                 
 dense_1 (Dense)             (None, 2)                 258       
                                                                 
=================================================================
Total params: 132130562 (504.04 MB)
Trainable params: 132130178 (504.04 MB)
Non-trainable params: 384 (1.50 KB)
_________________________________________________________________
Found 10000 validated image filenames belonging to 2 classes.
Epoch 1/10

  1/313 [..............................] - ETA: 14:42 - loss: 1.0563 - accuracy: 0.5625
…
