…
rom ./data/
13838 images found
data files:
                      filename category
8067      evolution_EN-ckh.jpg       EN
6907      evolution_EN-agf.jpg       EN
5508        dracula_EN-bqo.jpg       EN
11695  liu-shouyuan_ZN-aiy.jpg       ZN
5389        dracula_EN-blf.jpg       EN
categories:
 category
EN    8442
ZN    5396
Name: count, dtype: int64
Model: "sequential"
_________________________________________________________________
 Layer (type)                Output Shape              Param #   
=================================================================
 conv2d (Conv2D)             (None, 127, 127, 64)      640       
                                                                 
 batch_normalization (Batch  (None, 127, 127, 64)      256       
 Normalization)                                                  
                                                                 
 max_pooling2d (MaxPooling2  (None, 63, 63, 64)        0         
 D)                                                              
                                                                 
 dropout (Dropout)           (None, 63, 63, 64)        0         
                                                                 
 flatten (Flatten)           (None, 254016)            0         
                                                                 
 dense (Dense)               (None, 128)               32514176  
                                                                 
 batch_normalization_1 (Bat  (None, 128)               512       
 chNormalization)                                                
                                                                 
 dropout_1 (Dropout)         (None, 128)               0         
                                                                 
 dense_1 (Dense)             (None, 2)                 258       
                                                                 
=================================================================
Total params: 32515842 (124.04 MB)
Trainable params: 32515458 (124.04 MB)
Non-trainable params: 384 (1.50 KB)
_________________________________________________________________
Found 13838 validated image filenames belonging to 2 classes.
Epoch 1/10
  1/433 [.
…
