…
                                  filename category
5728                    dracula_EN-ccg.jpg       EN
4744                    dracula_EN-ahn.jpg       EN
1522   aakjaer-samlede-verker-2_DA-awf.jpg       DA
7179                  evolution_EN-auk.jpg       EN
12137     tommy-rem-battle-book_EN-aje.jpg       EN
categories:
 category
EN    8442
DA    4095
Name: count, dtype: int64
Model: "sequential"
_________________________________________________________________
 Layer (type)                Output Shape              Param #
=================================================================
 conv2d (Conv2D)             (None, 254, 254, 64)      640

 batch_normalization (Batch  (None, 254, 254, 64)      256
 Normalization)

 max_pooling2d (MaxPooling2  (None, 127, 127, 64)      0
 D)

 dropout (Dropout)           (None, 127, 127, 64)      0

 flatten (Flatten)           (None, 1032256)           0

 dense (Dense)               (None, 128)               132128896

 batch_normalization_1 (Bat  (None, 128)               512
 chNormalization)

 dropout_1 (Dropout)         (None, 128)               0

 dense_1 (Dense)             (None, 2)                 258

=================================================================
Total params: 132130562 (504.04 MB)
Trainable params: 132130178 (504.04 MB)
Non-trainable params: 384 (1.50 KB)
_________________________________________________________________
Found 12537 validated image filenames belonging to 2 classes.
Epoch 1/10
392/392 [==============================] - 76s 184ms/step - loss: 0.5381 - accuracy: 0.7922
…
