…
                            filename category
4500   claudes-confession_EN-bih.jpg       EN
3654         chinese-laws_ZN-grh.jpg       ZN
13408         novel_00016_TH-acf.jpg       TH
18903         novel_00087_TH-akt.jpg       TH
12815         novel_00010_TH-aao.jpg       TH
categories:
 category
EN    8442
TH    7425
ZN    5396
Name: count, dtype: int64
Model: "sequential"
_________________________________________________________________
 Layer (type)                Output Shape              Param #   
=================================================================
 conv2d (Conv2D)             (None, 254, 254, 64)      640       
                                                                 
 batch_normalization (Batch  (None, 254, 254, 64)      256       
 Normalization)                                                  
                                                                 
 max_pooling2d (MaxPooling2  (None, 127, 127, 64)      0         
 D)                                                              
                                                                 
 dropout (Dropout)           (None, 127, 127, 64)      0         
                                                                 
 flatten (Flatten)           (None, 1032256)           0         
                                                                 
 dense (Dense)               (None, 128)               132128896 
                                                                 
 batch_normalization_1 (Bat  (None, 128)               512       
 chNormalization)                                                
                                                                 
 dropout_1 (Dropout)         (None, 128)               0         
                                                                 
 flatten_1 (Flatten)         (None, 128)               0         
                                                                 
 dense_1 (Dense)             (None, 128)               16512     
                                                                 
 batch_normalization_2 (Bat  (None, 128)               512       
 chNormalization)                                                
                                                                 
 dropout_2 (Dropout)         (None, 128)               0         
                                                                 
 dense_2 (Dense)             (None, 3)                 387       
                                                                 
=================================================================
Total params: 132147715 (504.10 MB)
Trainable params: 132147075 (504.10 MB)
Non-trainable params: 640 (2.50 KB)
_________________________________________________________________
Found 21263 validated image filenames belonging to 3 classes.
Epoch 1/10

  1/665 [..............................] - ETA: 37:30 - loss: 1.7102 - accuracy: 0.3125
…
