…
                                 filename category
2833  aakjaer-samlede-verker-3_DA-biv.jpg       DA
2606  aakjaer-samlede-verker-3_DA-axx.jpg       DA
3628  aakjaer-samlede-verker-3_DA-cvj.jpg       DA
4906                   dracula_EN-aoz.jpg       EN
5854                   dracula_EN-cif.jpg       EN
categories:
 category
EN    8442
DA    4095
Name: count, dtype: int64
Model: "sequential"
_________________________________________________________________
 Layer (type)                Output Shape              Param #   
=================================================================
 conv2d (Conv2D)             (None, 127, 127, 64)      640       
                                                                 
 batch_normalization (Batch  (None, 127, 127, 64)      256       
 Normalization)                                                  
                                                                 
 max_pooling2d (MaxPooling2  (None, 63, 63, 64)        0         
 D)                                                              
                                                                 
 dropout (Dropout)           (None, 63, 63, 64)        0         
                                                                 
 conv2d_1 (Conv2D)           (None, 61, 61, 128)       73856     
                                                                 
 batch_normalization_1 (Bat  (None, 61, 61, 128)       512       
 chNormalization)                                                
                                                                 
 max_pooling2d_1 (MaxPoolin  (None, 30, 30, 128)       0         
 g2D)                                                            
                                                                 
 dropout_1 (Dropout)         (None, 30, 30, 128)       0         
                                                                 
 flatten (Flatten)           (None, 115200)            0         
                                                                 
 dense (Dense)               (None, 128)               14745728  
                                                                 
 batch_normalization_2 (Bat  (None, 128)               512       
 chNormalization)                                                
                                                                 
 dropout_2 (Dropout)         (None, 128)               0         
                                                                 
 dense_1 (Dense)             (None, 2)                 258       
                                                                 
=================================================================
Total params: 14821762 (56.54 MB)
Trainable params: 14821122 (56.54 MB)
Non-trainable params: 640 (2.50 KB)
_________________________________________________________________
Found 12537 validated image filenames belonging to 2 classes.
Epoch 1/10

  1/392 [..............................] - ETA: 27:12 - loss: 1.2199 - accuracy: 0.4688
…
