…
                               filename category
14255            novel_00025_TH-aet.jpg       TH
20750  tommy-rem-battle-book_EN-adr.jpg       EN
19948           ocean-tramps_EN-bbt.jpg       EN
15453            novel_00035_TH-ada.jpg       TH
13290            novel_00015_TH-aao.jpg       TH
categories:
 category
EN    8442
TH    7425
ZN    5396
Name: count, dtype: int64
Model: "sequential"
_________________________________________________________________
 Layer (type)                Output Shape              Param #   
=================================================================
 conv2d (Conv2D)             (None, 254, 254, 64)      640       
                                                                 
 batch_normalization (Batch  (None, 254, 254, 64)      256       
 Normalization)                                                  
                                                                 
 max_pooling2d (MaxPooling2  (None, 127, 127, 64)      0         
 D)                                                              
                                                                 
 dropout (Dropout)           (None, 127, 127, 64)      0         
                                                                 
 conv2d_1 (Conv2D)           (None, 125, 125, 128)     73856     
                                                                 
 batch_normalization_1 (Bat  (None, 125, 125, 128)     512       
 chNormalization)                                                
                                                                 
 max_pooling2d_1 (MaxPoolin  (None, 62, 62, 128)       0         
 g2D)                                                            
                                                                 
 dropout_1 (Dropout)         (None, 62, 62, 128)       0         
                                                                 
 average_pooling2d (Average  (None, 31, 31, 128)       0         
 Pooling2D)                                                      
                                                                 
 flatten (Flatten)           (None, 123008)            0         
                                                                 
 dense (Dense)               (None, 128)               15745152  
                                                                 
 batch_normalization_2 (Bat  (None, 128)               512       
 chNormalization)                                                
                                                                 
 dropout_2 (Dropout)         (None, 128)               0         
                                                                 
 dense_1 (Dense)             (None, 3)                 387       
                                                                 
=================================================================
Total params: 15821315 (60.35 MB)
Trainable params: 15820675 (60.35 MB)
Non-trainable params: 640 (2.50 KB)
_________________________________________________________________
Found 21263 validated image filenames belonging to 3 classes.
Epoch 1/10

  1/665 [..............................] - ETA: 1:31:49 - loss: 1.8089 - accuracy: 0.4062
…
