…
ages from ./data/
10000 images found
data files:
                     filename category
2008  chinese-laws_ZN-dyh.jpg       ZN
9221  ocean-tramps_EN-azi.jpg       EN
4079       dracula_EN-afr.jpg       EN
8545  liu-shouyuan_ZN-aci.jpg       ZN
2685  chinese-laws_ZN-fhl.jpg       ZN
categories:
 category
ZN    5000
EN    5000
Name: count, dtype: int64
Model: "sequential"
_________________________________________________________________
 Layer (type)                Output Shape              Param #   
=================================================================
 conv2d (Conv2D)             (None, 254, 254, 64)      640       
                                                                 
 batch_normalization (Batch  (None, 254, 254, 64)      256       
 Normalization)                                                  
                                                                 
 max_pooling2d (MaxPooling2  (None, 127, 127, 64)      0         
 D)                                                              
                                                                 
 dropout (Dropout)           (None, 127, 127, 64)      0         
                                                                 
 conv2d_1 (Conv2D)           (None, 125, 125, 128)     73856     
                                                                 
 batch_normalization_1 (Bat  (None, 125, 125, 128)     512       
 chNormalization)                                                
                                                                 
 max_pooling2d_1 (MaxPoolin  (None, 62, 62, 128)       0         
 g2D)                                                            
                                                                 
 dropout_1 (Dropout)         (None, 62, 62, 128)       0         
                                                                 
 flatten (Flatten)           (None, 492032)            0         
                                                                 
 dense (Dense)               (None, 128)               62980224  
                                                                 
 batch_normalization_2 (Bat  (None, 128)               512       
 chNormalization)                                                
                                                                 
 dropout_2 (Dropout)         (None, 128)               0         
                                                                 
 flatten_1 (Flatten)         (None, 128)               0         
                                                                 
 dense_1 (Dense)             (None, 128)               16512     
                                                                 
 batch_normalization_3 (Bat  (None, 128)               512       
 chNormalization)                                                
                                                                 
 dropout_3 (Dropout)         (None, 128)               0         
                                                                 
 dense_2 (Dense)             (None, 2)                 258       
                                                                 
=================================================================
Total params: 63073282 (240.61 MB)
Trainable params: 63072386 (240.60 MB)
Non-trainable params: 896 (3.50 KB)
_________________________________________________________________
Found 10000 validated image filenames belonging to 2 classes.
Epoch 1/10

  1/313 [..............................] - ETA: 39:09 - loss: 0.9197 - accuracy: 0.6562
…
