…
21263 images found
data files:
                         filename category
11413  ling-chu-ko-pai_ZN-bsh.jpg       ZN
17475      novel_00070_TH-aaa.jpg       TH
5871           dracula_EN-chw.jpg       EN
15759      novel_00040_TH-aca.jpg       TH
8589         evolution_EN-djl.jpg       EN
categories:
 category
EN    8442
TH    7425
ZN    5396
Name: count, dtype: int64
Model: "sequential"
_________________________________________________________________
 Layer (type)                Output Shape              Param #   
=================================================================
 conv2d (Conv2D)             (None, 254, 254, 64)      640       
                                                                 
 batch_normalization (Batch  (None, 254, 254, 64)      256       
 Normalization)                                                  
                                                                 
 max_pooling2d (MaxPooling2  (None, 127, 127, 64)      0         
 D)                                                              
                                                                 
 dropout (Dropout)           (None, 127, 127, 64)      0         
                                                                 
 flatten (Flatten)           (None, 1032256)           0         
                                                                 
 dense (Dense)               (None, 128)               132128896 
                                                                 
 batch_normalization_1 (Bat  (None, 128)               512       
 chNormalization)                                                
                                                                 
 dropout_1 (Dropout)         (None, 128)               0         
                                                                 
 dense_1 (Dense)             (None, 3)                 387       
                                                                 
=================================================================
Total params: 132130691 (504.04 MB)
Trainable params: 132130307 (504.04 MB)
Non-trainable params: 384 (1.50 KB)
_________________________________________________________________
Found 21263 validated image filenames belonging to 3 classes.
Epoch 1/10
  1/665 
…
